tasks/vision/object-detection/faceDet/yolo_face_detect.tflite (tflite, 293344 bytes, 41 tensors)

model_1/out_third/Conv2D i1 [18, 1, 1, 144]
0	0x0a	10
1	0xfe	-2
2	0x0c	12
3	0xfe	-2
4	0xf4	-12
5	0x0c	12
6	0x0d	13
7	0xf8	-8
8	0xf0	-16
9	0x2f	47
10	0x0e	14
11	0x05	5
12	0xf6	-10
13	0x03	3
14	0x08	8
15	0x0f	15
16	0x04	4
17	0x16	22
18	0x08	8
19	0xfb	-5
20	0xfb	-5
21	0xf7	-9
22	0x09	9
23	0x03	3
24	0x03	3
25	0x03	3
26	0xff	-1
27	0xfd	-3
28	0x9a	-102
29	0xfd	-3
30	0x05	5
31	0x0f	15
32	0x13	19
33	0x05	5
34	0xe8	-24
35	0xf6	-10
36	0x01	1
37	0x06	6
38	0xf8	-8
39	0x74	116
40	0xfd	-3
41	0x06	6
42	0xfc	-4
43	0xe6	-26
44	0x00	0
45	0x00	0
46	0xf8	-8
47	0xcc	-52
48	0x09	9
49	0x06	6
50	0xfe	-2
51	0x07	7
52	0xf5	-11
53	0xf2	-14
54	0x06	6
55	0x06	6
56	0x04	4
57	0x04	4
58	0xfe	-2
59	0x02	2
60	0x03	3
61	0xed	-19
62	0xfe	-2
63	0x02	2
64	0x0a	10
65	0x08	8
66	0x05	5
67	0xfc	-4
68	0xf5	-11
69	0xfc	-4
70	0x08	8
71	0xfd	-3
72	0xfd	-3
73	0x01	1
74	0x4f	79
75	0xf8	-8
76	0x81	-127
77	0xff	-1
78	0x04	4
79	0xfd	-3
80	0xfb	-5
81	0xfa	-6
82	0x07	7
83	0xff	-1
84	0xf6	-10
85	0x02	2
86	0xe2	-30
87	0xfd	-3
88	0x03	3
89	0x17	23
90	0xfe	-2
91	0x00	0
92	0xf1	-15
93	0xf4	-12
94	0x10	16
95	0x22	34
96	0x02	2
97	0xfe	-2
98	0x01	1
99	0x05	5
100	0xf5	-11
101	0x01	1
102	0x03	3
103	0x1a	26
104	0x03	3
105	0xf7	-9
106	0xdc	-36
107	0x00	0
108	0xf9	-7
109	0x0d	13
110	0x0e	14
111	0x00	0
112	0x02	2
113	0x0f	15
114	0x01	1
115	0xff	-1
116	0x01	1
117	0xf3	-13
118	0x03	3
119	0xf4	-12
120	0x0c	12
121	0xfe	-2
122	0xfd	-3
123	0xfb	-5
124	0x10	16
125	0x06	6
126	0xea	-22
127	0xfa	-6
128	0xe2	-30
129	0x11	17
130	0x04	4
131	0xfe	-2
132	0x05	5
133	0x06	6
134	0x18	24
135	0xf9	-7
136	0xff	-1
137	0x00	0
138	0xfe	-2
139	0x00	0
140	0xf7	-9
141	0x03	3
142	0x00	0
143	0xfa	-6
144	0xd8	-40
145	0x0e	14
146	0x13	19
147	0xd1	-47
148	0x08	8
149	0xdf	-33
150	0x11	17
151	0x01	1
152	0xfd	-3
153	0x01	1
154	0xf2	-14
155	0x06	6
156	0xea	-22
157	0xf7	-9
158	0xf6	-10
159	0xf3	-13
160	0xe1	-31
161	0xea	-22
162	0x09	9
163	0x1b	27
164	0xe9	-23
165	0xfd	-3
166	0x17	23
167	0x7f	127
168	0xfd	-3
169	0xff	-1
170	0xfe	-2
171	0xf0	-16
172	0x07	7
173	0x1c	28
174	0x09	9
175	0x35	53
176	0x1b	27
177	0x28	40
178	0xf7	-9
179	0xe8	-24
180	0xde	-34
181	0x01	1
182	0xe7	-25
183	0x01	1
184	0x0a	10
185	0x09	9
186	0x21	33
187	0xf5	-11
188	0xee	-18
189	0xf6	-10
190	0xe5	-27
191	0xfa	-6
192	0xfa	-6
193	0x19	25
194	0x0f	15
195	0x04	4
196	0x3d	61
197	0xf5	-11
198	0x0e	14
199	0x0e	14
200	0x01	1
201	0xfb	-5
202	0xd8	-40
203	0xab	-85
204	0x12	18
205	0xfd	-3
206	0x8b	-117
207	0x0c	12
208	0xe0	-32
209	0x1c	28
210	0xf4	-12
211	0x01	1
212	0x12	18
213	0x44	68
214	0xea	-22
215	0xe3	-29
216	0x45	69
217	0xd0	-48
218	0xf2	-14
219	0x25	37
220	0xfd	-3
221	0xc0	-64
222	0x05	5
223	0x08	8
224	0xfa	-6
225	0x03	3
226	0xfc	-4
227	0x59	89
228	0x31	49
229	0x01	1
230	0x17	23
231	0x0b	11
232	0xfc	-4
233	0xfd	-3
234	0xf6	-10
235	0x05	5
236	0xea	-22
237	0x03	3
238	0xd6	-42
239	0x01	1
240	0x04	4
241	0xf6	-10
242	0x02	2
243	0x06	6
244	0xf3	-13
245	0xd8	-40
246	0xfc	-4
247	0xfe	-2
248	0xf7	-9
249	0x0b	11
250	0xd6	-42
251	0x1a	26
252	0x20	32
253	0xf2	-14
254	0x07	7
255	0xf3	-13

model_1/out_second/Conv2D i1 [18, 1, 1, 144]
0	0xff	-1
1	0x18	24
2	0x21	33
3	0xd4	-44
4	0x10	16
5	0x75	117
6	0x0e	14
7	0xea	-22
8	0x14	20
9	0x03	3
10	0xf4	-12
11	0xf8	-8
12	0x0b	11
13	0xdf	-33
14	0x5b	91
15	0x00	0
16	0xe6	-26
17	0x0b	11
18	0xfd	-3
19	0xf6	-10
20	0x23	35
21	0xff	-1
22	0x06	6
23	0xf8	-8
24	0x0c	12
25	0xf6	-10
26	0x0d	13
27	0xf3	-13
28	0xe9	-23
29	0x43	67
30	0x05	5
31	0x09	9
32	0x04	4
33	0x06	6
34	0x20	32
35	0xfa	-6
36	0xe0	-32
37	0x0d	13
38	0x00	0
39	0x0a	10
40	0xed	-19
41	0x03	3
42	0xe2	-30
43	0x06	6
44	0xfe	-2
45	0x16	22
46	0x07	7
47	0xfb	-5
48	0xff	-1
49	0x0a	10
50	0x01	1
51	0x07	7
52	0x05	5
53	0x1e	30
54	0x05	5
55	0xf4	-12
56	0x10	16
57	0x82	-126
58	0x12	18
59	0xdc	-36
60	0xf2	-14
61	0x05	5
62	0x16	22
63	0xbf	-65
64	0xfc	-4
65	0xef	-17
66	0x0d	13
67	0x05	5
68	0x7f	127
69	0x18	24
70	0xf2	-14
71	0xe8	-24
72	0x19	25
73	0xe5	-27
74	0xe3	-29
75	0xf5	-11
76	0x29	41
77	0x13	19
78	0xc5	-59
79	0xf5	-11
80	0x4b	75
81	0xf5	-11
82	0x16	22
83	0x31	49
84	0x05	5
85	0x05	5
86	0xd0	-48
87	0x01	1
88	0xff	-1
89	0x0b	11
90	0x12	18
91	0xc9	-55
92	0xf7	-9
93	0x2e	46
94	0x00	0
95	0xef	-17
96	0x02	2
97	0xf3	-13
98	0x14	20
99	0x04	4
100	0x38	56
101	0xf3	-13
102	0x00	0
103	0x3f	63
104	0x21	33
105	0xf9	-7
106	0xfa	-6
107	0xe5	-27
108	0xf5	-11
109	0x05	5
110	0xf6	-10
111	0x36	54
112	0x48	72
113	0x14	20
114	0xff	-1
115	0x02	2
116	0x01	1
117	0xee	-18
118	0xf6	-10
119	0x0a	10
120	0xff	-1
121	0xef	-17
122	0xfe	-2
123	0x45	69
124	0x01	1
125	0xf4	-12
126	0xfb	-5
127	0xfc	-4
128	0x00	0
129	0x81	-127
130	0x91	-111
131	0x1c	28
132	0x3e	62
133	0xea	-22
134	0xfc	-4
135	0x07	7
136	0xfe	-2
137	0xf7	-9
138	0x28	40
139	0xf0	-16
140	0x06	6
141	0xfb	-5
142	0x2a	42
143	0x13	19
144	0x0b	11
145	0xc7	-57
146	0x0a	10
147	0x07	7
148	0xf2	-14
149	0x41	65
150	0x38	56
151	0x0f	15
152	0x0f	15
153	0xf3	-13
154	0xf2	-14
155	0x0b	11
156	0x02	2
157	0xf0	-16
158	0xfd	-3
159	0x08	8
160	0x15	21
161	0xf9	-7
162	0xf8	-8
163	0x0e	14
164	0xff	-1
165	0xfb	-5
166	0x84	-124
167	0x09	9
168	0x13	19
169	0x1b	27
170	0x21	33
171	0x28	40
172	0xf7	-9
173	0x16	22
174	0x08	8
175	0xc0	-64
176	0xa7	-89
177	0xef	-17
178	0x07	7
179	0xfd	-3
180	0x05	5
181	0x08	8
182	0x38	56
183	0x21	33
184	0x1a	26
185	0xe4	-28
186	0x26	38
187	0x18	24
188	0x02	2
189	0xfb	-5
190	0xf0	-16
191	0x23	35
192	0xf0	-16
193	0xff	-1
194	0xa9	-87
195	0xf2	-14
196	0x19	25
197	0x06	6
198	0xef	-17
199	0x00	0
200	0x04	4
201	0x01	1
202	0x32	50
203	0x20	32
204	0xf3	-13
205	0x0c	12
206	0xfb	-5
207	0x07	7
208	0x04	4
209	0x0c	12
210	0x09	9
211	0x04	4
212	0xca	-54
213	0x01	1
214	0xfc	-4
215	0x04	4
216	0xfd	-3
217	0x23	35
218	0x7f	127
219	0x0d	13
220	0xf5	-11
221	0x15	21
222	0xf5	-11
223	0xfa	-6
224	0xf2	-14
225	0x0b	11
226	0x1a	26
227	0x06	6
228	0xf9	-7
229	0x04	4
230	0xf8	-8
231	0xdc	-36
232	0x21	33
233	0xfc	-4
234	0x1e	30
235	0xef	-17
236	0xfa	-6
237	0xe6	-26
238	0xa5	-91
239	0x17	23
240	0x10	16
241	0xfd	-3
242	0xf1	-15
243	0x1a	26
244	0x0d	13
245	0x8d	-115
246	0x0a	10
247	0x17	23
248	0x0c	12
249	0xf9	-7
250	0xf9	-7
251	0xf1	-15
252	0xe6	-26
253	0x1d	29
254	0x29	41
255	0xf9	-7

model_1/out_first/Conv2D i1 [18, 1, 1, 144]
0	0xfb	-5
1	0xff	-1
2	0x7f	127
3	0x47	71
4	0x0e	14
5	0x2c	44
6	0xf7	-9
7	0xf2	-14
8	0xfa	-6
9	0xf3	-13
10	0x01	1
11	0x09	9
12	0xef	-17
13	0x0d	13
14	0xcf	-49
15	0x01	1
16	0xee	-18
17	0x06	6
18	0xc4	-60
19	0xf1	-15
20	0xfd	-3
21	0x33	51
22	0xe4	-28
23	0xe6	-26
24	0x06	6
25	0xe9	-23
26	0x6e	110
27	0xf0	-16
28	0xf2	-14
29	0x00	0
30	0x06	6
31	0x0b	11
32	0xfb	-5
33	0x1e	30
34	0xff	-1
35	0x06	6
36	0xda	-38
37	0xb8	-72
38	0x09	9
39	0x27	39
40	0xda	-38
41	0xf2	-14
42	0xf8	-8
43	0x0e	14
44	0xe7	-25
45	0x0c	12
46	0x02	2
47	0x09	9
48	0xf2	-14
49	0xff	-1
50	0xdf	-33
51	0x37	55
52	0x0f	15
53	0x03	3
54	0xef	-17
55	0xe7	-25
56	0x21	33
57	0x00	0
58	0x0d	13
59	0x05	5
60	0xe8	-24
61	0xf9	-7
62	0xff	-1
63	0xf5	-11
64	0x04	4
65	0x07	7
66	0xdb	-37
67	0x1e	30
68	0xe1	-31
69	0xc0	-64
70	0xfa	-6
71	0x06	6
72	0x1b	27
73	0x06	6
74	0xfd	-3
75	0x3b	59
76	0xe4	-28
77	0x09	9
78	0x00	0
79	0x07	7
80	0x09	9
81	0xfe	-2
82	0x03	3
83	0x36	54
84	0xf8	-8
85	0xf7	-9
86	0xff	-1
87	0x07	7
88	0x1d	29
89	0xf0	-16
90	0x09	9
91	0xeb	-21
92	0xfb	-5
93	0x23	35
94	0xfb	-5
95	0x03	3
96	0xfd	-3
97	0xfd	-3
98	0x1e	30
99	0x0b	11
100	0xfc	-4
101	0xfb	-5
102	0x0c	12
103	0x01	1
104	0xfa	-6
105	0x10	16
106	0xfe	-2
107	0x03	3
108	0x02	2
109	0xdd	-35
110	0x01	1
111	0xe2	-30
112	0x03	3
113	0xfb	-5
114	0xf3	-13
115	0xe9	-23
116	0xd2	-46
117	0xfe	-2
118	0xfa	-6
119	0x26	38
120	0xe5	-27
121	0xea	-22
122	0x25	37
123	0x1e	30
124	0xf5	-11
125	0x0a	10
126	0x20	32
127	0xc6	-58
128	0xd2	-46
129	0x11	17
130	0x04	4
131	0xff	-1
132	0xed	-19
133	0x1b	27
134	0x0d	13
135	0xfc	-4
136	0x17	23
137	0x03	3
138	0xd7	-41
139	0x13	19
140	0xf9	-7
141	0x01	1
142	0x19	25
143	0x0e	14
144	0xfc	-4
145	0xe9	-23
146	0x01	1
147	0x04	4
148	0xed	-19
149	0x2f	47
150	0x09	9
151	0xcf	-49
152	0x11	17
153	0xee	-18
154	0x05	5
155	0xf1	-15
156	0x07	7
157	0x86	-122
158	0x3d	61
159	0x0a	10
160	0x00	0
161	0xf8	-8
162	0xf3	-13
163	0x07	7
164	0x14	20
165	0xf3	-13
166	0x26	38
167	0x06	6
168	0xd9	-39
169	0xe1	-31
170	0xfb	-5
171	0x24	36
172	0x12	18
173	0x0a	10
174	0x65	101
175	0xf9	-7
176	0xf7	-9
177	0xfc	-4
178	0x04	4
179	0x07	7
180	0x11	17
181	0xda	-38
182	0x03	3
183	0x02	2
184	0xff	-1
185	0x07	7
186	0x96	-106
187	0x0e	14
188	0x10	16
189	0xf3	-13
190	0xf3	-13
191	0xfc	-4
192	0x0e	14
193	0x9d	-99
194	0x3d	61
195	0xe2	-30
196	0x10	16
197	0x3b	59
198	0xc5	-59
199	0xef	-17
200	0x13	19
201	0x01	1
202	0x19	25
203	0xfa	-6
204	0x00	0
205	0x54	84
206	0x02	2
207	0xeb	-21
208	0x1c	28
209	0x0d	13
210	0x0a	10
211	0x06	6
212	0xd2	-46
213	0x00	0
214	0xee	-18
215	0x02	2
216	0x03	3
217	0x42	66
218	0xe8	-24
219	0x3d	61
220	0xf9	-7
221	0x03	3
222	0xe6	-26
223	0xde	-34
224	0xe3	-29
225	0x31	49
226	0x1f	31
227	0xe5	-27
228	0x3d	61
229	0x12	18
230	0xe9	-23
231	0x3e	62
232	0xe7	-25
233	0x09	9
234	0x81	-127
235	0x17	23
236	0x11	17
237	0xe5	-27
238	0x04	4
239	0xf0	-16
240	0xf7	-9
241	0xe9	-23
242	0x0a	10
243	0x0b	11
244	0x04	4
245	0x26	38
246	0xf4	-12
247	0xff	-1
248	0xf8	-8
249	0xed	-19
250	0xde	-34
251	0x09	9
252	0x22	34
253	0xaf	-81
254	0x22	34
255	0x1b	27

model_1/conv2d_2/Conv2D i1 [144, 1, 1, 192]
0	0x4f	79
1	0xfd	-3
2	0x10	16
3	0xf3	-13
4	0x06	6
5	0x00	0
6	0xf0	-16
7	0xee	-18
8	0x07	7
9	0xf3	-13
10	0x17	23
11	0xff	-1
12	0xea	-22
13	0x0c	12
14	0xe8	-24
15	0x26	38
16	0x03	3
17	0xf3	-13
18	0x12	18
19	0xe5	-27
20	0x02	2
21	0xff	-1
22	0xf5	-11
23	0x3c	60
24	0x06	6
25	0xf7	-9
26	0xf9	-7
27	0x02	2
28	0x02	2
29	0x44	68
30	0xd8	-40
31	0x01	1
32	0x06	6
33	0x13	19
34	0xf1	-15
35	0x07	7
36	0x25	37
37	0x1b	27
38	0xfe	-2
39	0x59	89
40	0xf9	-7
41	0x14	20
42	0x28	40
43	0xee	-18
44	0x1b	27
45	0x01	1
46	0x25	37
47	0xfd	-3
48	0xf2	-14
49	0x04	4
50	0x5a	90
51	0xf9	-7
52	0xed	-19
53	0xf3	-13
54	0xe8	-24
55	0x05	5
56	0xfd	-3
57	0xee	-18
58	0x11	17
59	0xff	-1
60	0xeb	-21
61	0x11	17
62	0x0e	14
63	0xfc	-4
64	0xf8	-8
65	0x0e	14
66	0x0b	11
67	0x04	4
68	0xdc	-36
69	0xf3	-13
70	0xe9	-23
71	0xed	-19
72	0xfe	-2
73	0x08	8
74	0x11	17
75	0xf2	-14
76	0x14	20
77	0x2d	45
78	0x17	23
79	0x01	1
80	0x04	4
81	0xef	-17
82	0xfa	-6
83	0x0c	12
84	0xec	-20
85	0x14	20
86	0x13	19
87	0xf8	-8
88	0xe4	-28
89	0x01	1
90	0x01	1
91	0xe8	-24
92	0x1c	28
93	0xeb	-21
94	0x10	16
95	0xeb	-21
96	0x1e	30
97	0x15	21
98	0xef	-17
99	0xef	-17
100	0x0a	10
101	0x08	8
102	0x01	1
103	0x03	3
104	0xe9	-23
105	0xce	-50
106	0x04	4
107	0x06	6
108	0x17	23
109	0xff	-1
110	0xf1	-15
111	0xfd	-3
112	0x0d	13
113	0xe0	-32
114	0xee	-18
115	0x00	0
116	0xf8	-8
117	0x11	17
118	0xf3	-13
119	0x12	18
120	0xfa	-6
121	0x08	8
122	0xe5	-27
123	0x12	18
124	0x26	38
125	0x1c	28
126	0x18	24
127	0x02	2
128	0x08	8
129	0xfb	-5
130	0x0e	14
131	0xff	-1
132	0x09	9
133	0x00	0
134	0xfa	-6
135	0xf7	-9
136	0xf1	-15
137	0xfe	-2
138	0x03	3
139	0xf6	-10
140	0xff	-1
141	0xeb	-21
142	0x00	0
143	0x00	0
144	0x28	40
145	0x06	6
146	0x0c	12
147	0x07	7
148	0xdc	-36
149	0xfb	-5
150	0x08	8
151	0xf1	-15
152	0x24	36
153	0xed	-19
154	0x0a	10
155	0x0e	14
156	0x18	24
157	0x08	8
158	0xe3	-29
159	0xfa	-6
160	0x03	3
161	0x27	39
162	0xfc	-4
163	0xf4	-12
164	0xf4	-12
165	0x20	32
166	0x12	18
167	0xe0	-32
168	0xf9	-7
169	0xf0	-16
170	0x08	8
171	0xfb	-5
172	0x00	0
173	0x38	56
174	0x0a	10
175	0x0f	15
176	0x05	5
177	0xfb	-5
178	0xf8	-8
179	0xe6	-26
180	0x05	5
181	0xf3	-13
182	0xeb	-21
183	0x17	23
184	0x13	19
185	0x65	101
186	0xec	-20
187	0xfd	-3
188	0x28	40
189	0x03	3
190	0x7f	127
191	0x3b	59
192	0xc4	-60
193	0x1a	26
194	0xd5	-43
195	0xe0	-32
196	0xfd	-3
197	0xf3	-13
198	0x13	19
199	0xeb	-21
200	0x05	5
201	0x06	6
202	0xef	-17
203	0xf0	-16
204	0xfe	-2
205	0x0b	11
206	0x1a	26
207	0x04	4
208	0xff	-1
209	0x04	4
210	0xd3	-45
211	0xf6	-10
212	0xf3	-13
213	0xdc	-36
214	0x09	9
215	0xd8	-40
216	0x09	9
217	0x18	24
218	0x0c	12
219	0xea	-22
220	0xea	-22
221	0xde	-34
222	0xe2	-30
223	0xd0	-48
224	0xce	-50
225	0x14	20
226	0x0d	13
227	0xfe	-2
228	0xe0	-32
229	0x0a	10
230	0x07	7
231	0xcb	-53
232	0xf5	-11
233	0xea	-22
234	0xfe	-2
235	0xff	-1
236	0xfd	-3
237	0x0b	11
238	0xf3	-13
239	0x10	16
240	0x0c	12
241	0xe5	-27
242	0xea	-22
243	0xfb	-5
244	0xf4	-12
245	0x15	21
246	0xe8	-24
247	0xfb	-5
248	0xdc	-36
249	0xe3	-29
250	0xdc	-36
251	0x0d	13
252	0x05	5
253	0xe5	-27
254	0x04	4
255	0xf4	-12

model_1/batch_normalization_2/FusedBatchNormV3;model_1/depthwise_conv2d/depthwise;model_1/depthwise_conv2d/BiasAdd/ReadVariableOp;model_1/depthwise_conv2d/BiasAdd i1 [1, 3, 3, 192]
0	0x0c	12
1	0x81	-127
2	0xa1	-95
3	0xce	-50
4	0xa9	-87
5	0xcd	-51
6	0x4f	79
7	0x52	82
8	0xfd	-3
9	0x16	22
10	0x10	16
11	0x55	85
12	0x10	16
13	0xad	-83
14	0xdc	-36
15	0xca	-54
16	0x0c	12
17	0xdb	-37
18	0x05	5
19	0x93	-109
20	0x13	19
21	0xf7	-9
22	0xe4	-28
23	0x7f	127
24	0x0b	11
25	0x0b	11
26	0xc8	-56
27	0x4a	74
28	0x77	119
29	0xd1	-47
30	0x8c	-116
31	0x10	16
32	0x3c	60
33	0x2f	47
34	0x17	23
35	0x19	25
36	0xed	-19
37	0x66	102
38	0x2b	43
39	0xfe	-2
40	0x35	53
41	0x16	22
42	0x6c	108
43	0x5f	95
44	0x0f	15
45	0x07	7
46	0xdf	-33
47	0xf5	-11
48	0x21	33
49	0xdb	-37
50	0x35	53
51	0x9d	-99
52	0x7f	127
53	0xe7	-25
54	0xf3	-13
55	0x33	51
56	0x29	41
57	0xe0	-32
58	0x53	83
59	0xd3	-45
60	0x9e	-98
61	0xb6	-74
62	0x21	33
63	0xf2	-14
64	0x81	-127
65	0x81	-127
66	0xca	-54
67	0x05	5
68	0xbd	-67
69	0x06	6
70	0x62	98
71	0x0a	10
72	0x73	115
73	0xed	-19
74	0xf9	-7
75	0xdc	-36
76	0x9f	-97
77	0x5e	94
78	0x8c	-116
79	0xf6	-10
80	0x6d	109
81	0xb9	-71
82	0xf7	-9
83	0xc7	-57
84	0xcd	-51
85	0x3a	58
86	0x64	100
87	0x64	100
88	0x52	82
89	0xe2	-30
90	0xc7	-57
91	0x55	85
92	0xaf	-81
93	0xb2	-78
94	0x8d	-115
95	0xc1	-63
96	0xb1	-79
97	0xe8	-24
98	0x31	49
99	0xf8	-8
100	0xf0	-16
101	0x35	53
102	0x56	86
103	0x9d	-99
104	0xf6	-10
105	0xd4	-44
106	0xe9	-23
107	0x16	22
108	0xab	-85
109	0xf5	-11
110	0x94	-108
111	0x25	37
112	0x81	-127
113	0xe9	-23
114	0x15	21
115	0x07	7
116	0xb9	-71
117	0xd6	-42
118	0xf6	-10
119	0x7f	127
120	0x81	-127
121	0xfd	-3
122	0x26	38
123	0x7d	125
124	0xb0	-80
125	0x6e	110
126	0x7f	127
127	0x7f	127
128	0xf5	-11
129	0x7f	127
130	0x39	57
131	0x8b	-117
132	0xb8	-72
133	0xa4	-92
134	0x0b	11
135	0x19	25
136	0xe8	-24
137	0x0f	15
138	0x81	-127
139	0x54	84
140	0xfc	-4
141	0xe6	-26
142	0xe1	-31
143	0xe0	-32
144	0x81	-127
145	0xef	-17
146	0xd0	-48
147	0xbb	-69
148	0xf0	-16
149	0xb7	-73
150	0xb6	-74
151	0xb6	-74
152	0xff	-1
153	0x96	-106
154	0x63	99
155	0xcb	-53
156	0x32	50
157	0xff	-1
158	0xef	-17
159	0xf0	-16
160	0x9d	-99
161	0xd1	-47
162	0x45	69
163	0x28	40
164	0x43	67
165	0x5b	91
166	0xef	-17
167	0x4a	74
168	0xb4	-76
169	0xe9	-23
170	0x03	3
171	0xdb	-37
172	0x48	72
173	0x8f	-113
174	0xbc	-68
175	0xb8	-72
176	0x7f	127
177	0xf9	-7
178	0xba	-70
179	0xfa	-6
180	0x1b	27
181	0xf2	-14
182	0xc4	-60
183	0x7f	127
184	0x7f	127
185	0x22	34
186	0x96	-106
187	0xf2	-14
188	0x5c	92
189	0x27	39
190	0x3f	63
191	0xe2	-30
192	0x03	3
193	0x4f	79
194	0x64	100
195	0x81	-127
196	0x95	-107
197	0x28	40
198	0x7f	127
199	0x7f	127
200	0x24	36
201	0x34	52
202	0x4a	74
203	0x01	1
204	0x3a	58
205	0x19	25
206	0xb7	-73
207	0xf6	-10
208	0xd2	-46
209	0xb2	-78
210	0xfb	-5
211	0x9b	-101
212	0x6c	108
213	0x19	25
214	0x99	-103
215	0x48	72
216	0xec	-20
217	0xe4	-28
218	0x99	-103
219	0x7f	127
220	0x84	-124
221	0x69	105
222	0xd0	-48
223	0xfb	-5
224	0x1d	29
225	0x7f	127
226	0xc6	-58
227	0x81	-127
228	0x2f	47
229	0x7f	127
230	0x62	98
231	0x1e	30
232	0xe1	-31
233	0x0d	13
234	0x7f	127
235	0x29	41
236	0x0f	15
237	0x7f	127
238	0xb9	-71
239	0x73	115
240	0xa1	-95
241	0x03	3
242	0x7f	127
243	0xb8	-72
244	0x1c	28
245	0x0a	10
246	0x27	39
247	0x03	3
248	0x7f	127
249	0xce	-50
250	0x1b	27
251	0xd8	-40
252	0x81	-127
253	0x95	-107
254	0xba	-70
255	0xc8	-56

model_1/conv2d_9/Conv2D i1 [144, 1, 1, 192]
0	0xc7	-57
1	0x13	19
2	0xff	-1
3	0x1d	29
4	0xf3	-13
5	0x25	37
6	0x0e	14
7	0xee	-18
8	0x3e	62
9	0xf6	-10
10	0xf0	-16
11	0x03	3
12	0x10	16
13	0x0d	13
14	0xff	-1
15	0x2a	42
16	0x14	20
17	0xf8	-8
18	0xfe	-2
19	0xff	-1
20	0x02	2
21	0x15	21
22	0xfa	-6
23	0xf6	-10
24	0x0c	12
25	0x2b	43
26	0x16	22
27	0x79	121
28	0xf4	-12
29	0x13	19
30	0xee	-18
31	0x1b	27
32	0x1d	29
33	0x15	21
34	0x2e	46
35	0x04	4
36	0x26	38
37	0xfb	-5
38	0x1e	30
39	0x6d	109
40	0x19	25
41	0x0b	11
42	0x0b	11
43	0x03	3
44	0x2c	44
45	0x09	9
46	0xf8	-8
47	0xfb	-5
48	0x0b	11
49	0x13	19
50	0x21	33
51	0x05	5
52	0x0a	10
53	0xf4	-12
54	0xfa	-6
55	0x41	65
56	0x13	19
57	0x01	1
58	0x0b	11
59	0x3e	62
60	0x10	16
61	0x02	2
62	0xf5	-11
63	0x25	37
64	0xf7	-9
65	0xfd	-3
66	0x14	20
67	0x0a	10
68	0x0e	14
69	0x00	0
70	0xd4	-44
71	0xfc	-4
72	0x1b	27
73	0x73	115
74	0x21	33
75	0x06	6
76	0x1a	26
77	0x15	21
78	0xef	-17
79	0x1c	28
80	0x74	116
81	0x0b	11
82	0x16	22
83	0x47	71
84	0x07	7
85	0x02	2
86	0xfd	-3
87	0x02	2
88	0x23	35
89	0xef	-17
90	0x10	16
91	0x01	1
92	0x23	35
93	0xf2	-14
94	0x7f	127
95	0x16	22
96	0xf0	-16
97	0xdd	-35
98	0x2b	43
99	0xfd	-3
100	0x32	50
101	0x1d	29
102	0x19	25
103	0x2e	46
104	0xf4	-12
105	0x24	36
106	0x27	39
107	0x06	6
108	0x13	19
109	0x28	40
110	0x16	22
111	0xf0	-16
112	0x0c	12
113	0x14	20
114	0x29	41
115	0x05	5
116	0x16	22
117	0x11	17
118	0xfd	-3
119	0xfb	-5
120	0x00	0
121	0x0c	12
122	0xfe	-2
123	0xfb	-5
124	0x15	21
125	0x0a	10
126	0xfc	-4
127	0x64	100
128	0x05	5
129	0x00	0
130	0xfe	-2
131	0xfe	-2
132	0x21	33
133	0x7b	123
134	0xf2	-14
135	0x07	7
136	0xfa	-6
137	0xfd	-3
138	0x19	25
139	0xec	-20
140	0xdc	-36
141	0x23	35
142	0xef	-17
143	0x22	34
144	0xff	-1
145	0xf3	-13
146	0x01	1
147	0x1c	28
148	0x19	25
149	0x10	16
150	0xfe	-2
151	0x09	9
152	0x1a	26
153	0xff	-1
154	0x00	0
155	0xfe	-2
156	0x00	0
157	0x00	0
158	0xde	-34
159	0xff	-1
160	0x1c	28
161	0xf4	-12
162	0x22	34
163	0x37	55
164	0x0e	14
165	0xf7	-9
166	0xf8	-8
167	0x53	83
168	0x14	20
169	0x0d	13
170	0xf6	-10
171	0x38	56
172	0x10	16
173	0x30	48
174	0xfe	-2
175	0xfb	-5
176	0x64	100
177	0x0c	12
178	0xef	-17
179	0x04	4
180	0x23	35
181	0x06	6
182	0xf9	-7
183	0x05	5
184	0x09	9
185	0x75	117
186	0xfd	-3
187	0x09	9
188	0xfa	-6
189	0xeb	-21
190	0x0d	13
191	0xfc	-4
192	0xf9	-7
193	0x28	40
194	0xf6	-10
195	0x3a	58
196	0xfc	-4
197	0x23	35
198	0x0b	11
199	0xff	-1
200	0x23	35
201	0x10	16
202	0xf8	-8
203	0xf6	-10
204	0x23	35
205	0xff	-1
206	0xed	-19
207	0x10	16
208	0x08	8
209	0x18	24
210	0xfa	-6
211	0xf4	-12
212	0xff	-1
213	0xf5	-11
214	0xfa	-6
215	0x27	39
216	0xfd	-3
217	0x24	36
218	0xf2	-14
219	0x23	35
220	0xf7	-9
221	0x18	24
222	0x05	5
223	0x3b	59
224	0x26	38
225	0x09	9
226	0x1f	31
227	0x1b	27
228	0x1f	31
229	0xf5	-11
230	0x2c	44
231	0x1c	28
232	0x08	8
233	0x0f	15
234	0x06	6
235	0x0d	13
236	0x04	4
237	0x23	35
238	0xfb	-5
239	0xfb	-5
240	0xf7	-9
241	0xfa	-6
242	0x52	82
243	0x14	20
244	0x07	7
245	0xfa	-6
246	0x01	1
247	0x2e	46
248	0xf7	-9
249	0xff	-1
250	0x19	25
251	0x13	19
252	0x0e	14
253	0x25	37
254	0xe9	-23
255	0x7f	127

model_1/batch_normalization_9/FusedBatchNormV3;model_1/depthwise_conv2d_2/depthwise;model_1/depthwise_conv2d_2/BiasAdd/ReadVariableOp;model_1/depthwise_conv2d_2/BiasAdd;model_1/depthwise_conv2d/depthwise i1 [1, 3, 3, 192]
0	0x08	8
1	0x0e	14
2	0x10	16
3	0xe3	-29
4	0xf6	-10
5	0x7f	127
6	0xd3	-45
7	0x5d	93
8	0xfe	-2
9	0x81	-127
10	0xca	-54
11	0xf2	-14
12	0xea	-22
13	0xff	-1
14	0xbb	-69
15	0xfd	-3
16	0xa9	-87
17	0xed	-19
18	0xdb	-37
19	0x1e	30
20	0x01	1
21	0x00	0
22	0xf8	-8
23	0x7e	126
24	0xf4	-12
25	0x1f	31
26	0xd8	-40
27	0x1d	29
28	0x13	19
29	0x68	104
30	0x97	-105
31	0x00	0
32	0xe8	-24
33	0xc4	-60
34	0xc3	-61
35	0x48	72
36	0xd4	-44
37	0x64	100
38	0x19	25
39	0xd1	-47
40	0x22	34
41	0x17	23
42	0xe9	-23
43	0x02	2
44	0xfd	-3
45	0x31	49
46	0xe1	-31
47	0xbb	-69
48	0x7f	127
49	0xe4	-28
50	0x1f	31
51	0xc7	-57
52	0x7f	127
53	0x3f	63
54	0x11	17
55	0x18	24
56	0x3b	59
57	0xde	-34
58	0x44	68
59	0x23	35
60	0xc9	-55
61	0x20	32
62	0x03	3
63	0xe1	-31
64	0x62	98
65	0xa9	-87
66	0xcc	-52
67	0xb8	-72
68	0xa6	-90
69	0x56	86
70	0xfd	-3
71	0xdf	-33
72	0x49	73
73	0x83	-125
74	0x04	4
75	0x25	37
76	0x2f	47
77	0xa0	-96
78	0x15	21
79	0x0c	12
80	0x07	7
81	0x7f	127
82	0x49	73
83	0x76	118
84	0xf6	-10
85	0xd8	-40
86	0x9e	-98
87	0x05	5
88	0xac	-84
89	0xe8	-24
90	0xfc	-4
91	0xbf	-65
92	0x9b	-101
93	0x16	22
94	0x13	19
95	0xf3	-13
96	0x81	-127
97	0x81	-127
98	0x24	36
99	0xd1	-47
100	0x3f	63
101	0x12	18
102	0xe7	-25
103	0x28	40
104	0xdf	-33
105	0x7f	127
106	0x7f	127
107	0x0f	15
108	0xbe	-66
109	0x72	114
110	0x0c	12
111	0xa4	-92
112	0x56	86
113	0x12	18
114	0x73	115
115	0xc9	-55
116	0xef	-17
117	0x26	38
118	0x13	19
119	0x08	8
120	0x10	16
121	0xc9	-55
122	0x13	19
123	0x9a	-102
124	0xaa	-86
125	0x2a	42
126	0x02	2
127	0x35	53
128	0xeb	-21
129	0x32	50
130	0x05	5
131	0xa7	-89
132	0x1b	27
133	0x45	69
134	0x09	9
135	0x46	70
136	0x13	19
137	0x4f	79
138	0x64	100
139	0xe8	-24
140	0x21	33
141	0x81	-127
142	0xe1	-31
143	0xb9	-71
144	0xdc	-36
145	0x08	8
146	0x30	48
147	0xe5	-27
148	0x1f	31
149	0xd1	-47
150	0xe7	-25
151	0xcf	-49
152	0x0b	11
153	0x84	-124
154	0x1d	29
155	0xd4	-44
156	0xe5	-27
157	0x13	19
158	0x14	20
159	0xf5	-11
160	0xe1	-31
161	0xc8	-56
162	0xd6	-42
163	0xe8	-24
164	0xf9	-7
165	0x30	48
166	0x23	35
167	0x35	53
168	0x7f	127
169	0xf8	-8
170	0xb8	-72
171	0xbe	-66
172	0x81	-127
173	0xfb	-5
174	0xd4	-44
175	0xd1	-47
176	0x17	23
177	0x92	-110
178	0x13	19
179	0x47	71
180	0xff	-1
181	0x7f	127
182	0x04	4
183	0xf2	-14
184	0xc5	-59
185	0x0a	10
186	0xe4	-28
187	0x18	24
188	0xc6	-58
189	0x42	66
190	0xc4	-60
191	0xe7	-25
192	0x10	16
193	0xd4	-44
194	0x18	24
195	0x2d	45
196	0xb1	-79
197	0x30	48
198	0xbc	-68
199	0x41	65
200	0x7f	127
201	0xed	-19
202	0x81	-127
203	0x81	-127
204	0x70	112
205	0x25	37
206	0xbd	-67
207	0x81	-127
208	0xac	-84
209	0x0c	12
210	0x07	7
211	0xb7	-73
212	0x81	-127
213	0x07	7
214	0x98	-104
215	0x7f	127
216	0x5d	93
217	0x45	69
218	0x7f	127
219	0x1b	27
220	0xab	-85
221	0x50	80
222	0x7f	127
223	0x41	65
224	0xf8	-8
225	0x97	-105
226	0x8c	-116
227	0xdc	-36
228	0x81	-127
229	0xc8	-56
230	0xf8	-8
231	0xce	-50
232	0x9c	-100
233	0xff	-1
234	0x81	-127
235	0x5a	90
236	0xb0	-80
237	0x14	20
238	0xf5	-11
239	0x18	24
240	0xc9	-55
241	0x96	-106
242	0x08	8
243	0xae	-82
244	0x39	57
245	0xea	-22
246	0x41	65
247	0x0f	15
248	0x95	-107
249	0xc9	-55
250	0x7f	127
251	0x5d	93
252	0xba	-70
253	0x7f	127
254	0xfb	-5
255	0x81	-127

model_1/conv2d_5/Conv2D i1 [144, 1, 1, 192]
0	0xe2	-30
1	0x14	20
2	0x06	6
3	0xfc	-4
4	0x04	4
5	0x10	16
6	0xef	-17
7	0x1b	27
8	0x1b	27
9	0x27	39
10	0xc3	-61
11	0xca	-54
12	0xda	-38
13	0x13	19
14	0xe2	-30
15	0xdb	-37
16	0x05	5
17	0xf9	-7
18	0x24	36
19	0x33	51
20	0xc4	-60
21	0x0f	15
22	0xd5	-43
23	0x16	22
24	0xe8	-24
25	0xd2	-46
26	0x03	3
27	0xf9	-7
28	0xf0	-16
29	0x04	4
30	0xf7	-9
31	0x1f	31
32	0xdf	-33
33	0x4b	75
34	0x19	25
35	0xe8	-24
36	0x30	48
37	0xda	-38
38	0xe7	-25
39	0xe8	-24
40	0xf1	-15
41	0xf4	-12
42	0x05	5
43	0x35	53
44	0xf2	-14
45	0xf5	-11
46	0xfb	-5
47	0xf6	-10
48	0xea	-22
49	0xef	-17
50	0xdf	-33
51	0xd2	-46
52	0x07	7
53	0x58	88
54	0xc4	-60
55	0x00	0
56	0xeb	-21
57	0xec	-20
58	0x17	23
59	0xff	-1
60	0xf0	-16
61	0xc8	-56
62	0x12	18
63	0x43	67
64	0xcd	-51
65	0x18	24
66	0x37	55
67	0xfb	-5
68	0xd0	-48
69	0xea	-22
70	0x1a	26
71	0x1f	31
72	0x0b	11
73	0xc6	-58
74	0xe3	-29
75	0xd1	-47
76	0xf3	-13
77	0x2f	47
78	0x14	20
79	0xeb	-21
80	0xcf	-49
81	0x39	57
82	0x10	16
83	0x19	25
84	0xfe	-2
85	0xc9	-55
86	0x0e	14
87	0xcd	-51
88	0x12	18
89	0x02	2
90	0xeb	-21
91	0xfc	-4
92	0xe0	-32
93	0x9d	-99
94	0x16	22
95	0x03	3
96	0xf5	-11
97	0xce	-50
98	0x06	6
99	0xa7	-89
100	0x08	8
101	0xf3	-13
102	0xe9	-23
103	0xf6	-10
104	0x10	16
105	0x0d	13
106	0x04	4
107	0xc3	-61
108	0xd2	-46
109	0x11	17
110	0xca	-54
111	0xef	-17
112	0x24	36
113	0xf6	-10
114	0x17	23
115	0xe1	-31
116	0xdf	-33
117	0x0e	14
118	0xe3	-29
119	0x0c	12
120	0xeb	-21
121	0xd4	-44
122	0x59	89
123	0x02	2
124	0xfb	-5
125	0x7f	127
126	0x0f	15
127	0xfe	-2
128	0x12	18
129	0xea	-22
130	0x2b	43
131	0x3d	61
132	0xe5	-27
133	0x36	54
134	0xe2	-30
135	0xed	-19
136	0xc5	-59
137	0xd0	-48
138	0xdb	-37
139	0x0c	12
140	0xeb	-21
141	0x2a	42
142	0x3b	59
143	0xd6	-42
144	0x11	17
145	0xf3	-13
146	0x17	23
147	0xf8	-8
148	0x1f	31
149	0x4d	77
150	0x48	72
151	0x2e	46
152	0xb7	-73
153	0x02	2
154	0xdc	-36
155	0x12	18
156	0xf7	-9
157	0xda	-38
158	0xf6	-10
159	0xde	-34
160	0x13	19
161	0xa6	-90
162	0x39	57
163	0xd3	-45
164	0xd7	-41
165	0xf7	-9
166	0x03	3
167	0x2b	43
168	0xf6	-10
169	0xb6	-74
170	0xec	-20
171	0xee	-18
172	0xe4	-28
173	0xb0	-80
174	0x08	8
175	0xff	-1
176	0x58	88
177	0xc8	-56
178	0x0a	10
179	0xef	-17
180	0xad	-83
181	0x15	21
182	0xe2	-30
183	0xdb	-37
184	0xd5	-43
185	0xfc	-4
186	0xf9	-7
187	0x6a	106
188	0x27	39
189	0x01	1
190	0x16	22
191	0xec	-20
192	0x0f	15
193	0xfc	-4
194	0x0b	11
195	0x05	5
196	0x1a	26
197	0x24	36
198	0xe8	-24
199	0x71	113
200	0x06	6
201	0x12	18
202	0xeb	-21
203	0xef	-17
204	0xfd	-3
205	0x02	2
206	0x5c	92
207	0x0e	14
208	0x3e	62
209	0xee	-18
210	0x15	21
211	0x4f	79
212	0x06	6
213	0x17	23
214	0xf0	-16
215	0xf8	-8
216	0x28	40
217	0x0a	10
218	0x06	6
219	0x2c	44
220	0x24	36
221	0x39	57
222	0x07	7
223	0x21	33
224	0x18	24
225	0x58	88
226	0x2b	43
227	0xe9	-23
228	0x47	71
229	0x29	41
230	0x08	8
231	0x23	35
232	0xff	-1
233	0x23	35
234	0x1e	30
235	0x5b	91
236	0xee	-18
237	0x07	7
238	0xf1	-15
239	0x0a	10
240	0x02	2
241	0xe9	-23
242	0x00	0
243	0xf7	-9
244	0x1d	29
245	0x36	54
246	0xf6	-10
247	0x56	86
248	0x04	4
249	0x29	41
250	0x26	38
251	0x2e	46
252	0x36	54
253	0x1f	31
254	0xf5	-11
255	0x4e	78

model_1/batch_normalization_5/FusedBatchNormV3;model_1/depthwise_conv2d_1/depthwise;model_1/depthwise_conv2d_1/BiasAdd/ReadVariableOp;model_1/depthwise_conv2d_1/BiasAdd;model_1/depthwise_conv2d/depthwise i1 [1, 3, 3, 192]
0	0xa7	-89
1	0x27	39
2	0x06	6
3	0x36	54
4	0x0f	15
5	0x30	48
6	0xc4	-60
7	0xeb	-21
8	0x96	-106
9	0x00	0
10	0x19	25
11	0xc7	-57
12	0x06	6
13	0x8b	-117
14	0x40	64
15	0x14	20
16	0x2e	46
17	0x8a	-118
18	0xa6	-90
19	0xfd	-3
20	0x8e	-114
21	0x6e	110
22	0x42	66
23	0x17	23
24	0x81	-127
25	0x95	-107
26	0x60	96
27	0x52	82
28	0x81	-127
29	0x7f	127
30	0xc5	-59
31	0x77	119
32	0x38	56
33	0x6e	110
34	0x13	19
35	0xef	-17
36	0x54	84
37	0x14	20
38	0xdd	-35
39	0x73	115
40	0x5e	94
41	0xe4	-28
42	0xeb	-21
43	0x81	-127
44	0xa2	-94
45	0xe7	-25
46	0xd9	-39
47	0x1e	30
48	0xf8	-8
49	0xc6	-58
50	0x5c	92
51	0xd1	-47
52	0x0e	14
53	0x68	104
54	0xa4	-92
55	0x30	48
56	0x14	20
57	0xe4	-28
58	0xd2	-46
59	0x6f	111
60	0x2e	46
61	0x04	4
62	0x81	-127
63	0x09	9
64	0x28	40
65	0x55	85
66	0xe6	-26
67	0x81	-127
68	0xa2	-94
69	0x05	5
70	0x40	64
71	0xc8	-56
72	0x11	17
73	0x33	51
74	0x09	9
75	0xc8	-56
76	0x3e	62
77	0xf2	-14
78	0xde	-34
79	0x2a	42
80	0x0a	10
81	0x1e	30
82	0x7f	127
83	0xf0	-16
84	0x0e	14
85	0xe1	-31
86	0xa0	-96
87	0xd3	-45
88	0xec	-20
89	0x7f	127
90	0x22	34
91	0xf9	-7
92	0xbc	-68
93	0x11	17
94	0x94	-108
95	0xea	-22
96	0x1b	27
97	0x1c	28
98	0xfd	-3
99	0x5d	93
100	0xa9	-87
101	0x2d	45
102	0xad	-83
103	0xf7	-9
104	0x24	36
105	0xed	-19
106	0xa5	-91
107	0x34	52
108	0xd2	-46
109	0xc3	-61
110	0xc0	-64
111	0x17	23
112	0x1a	26
113	0x35	53
114	0x07	7
115	0xa7	-89
116	0x02	2
117	0xdc	-36
118	0xd6	-42
119	0x15	21
120	0x82	-126
121	0x38	56
122	0x46	70
123	0x24	36
124	0x81	-127
125	0x4d	77
126	0xc3	-61
127	0xe8	-24
128	0x4e	78
129	0xa7	-89
130	0xc9	-55
131	0xc1	-63
132	0xe6	-26
133	0x1a	26
134	0x5f	95
135	0x7f	127
136	0xc3	-61
137	0xdb	-37
138	0x26	38
139	0xa8	-88
140	0xab	-85
141	0x42	66
142	0x29	41
143	0xdd	-35
144	0x13	19
145	0xe6	-26
146	0x3b	59
147	0xcd	-51
148	0x7f	127
149	0x36	54
150	0x09	9
151	0x43	67
152	0x1b	27
153	0x17	23
154	0xcb	-53
155	0xe4	-28
156	0x1d	29
157	0x19	25
158	0x81	-127
159	0xf8	-8
160	0xfc	-4
161	0x45	69
162	0x91	-111
163	0xfd	-3
164	0xfa	-6
165	0xf7	-9
166	0xf3	-13
167	0x08	8
168	0x15	21
169	0xa0	-96
170	0x00	0
171	0xcc	-52
172	0x9e	-98
173	0x0f	15
174	0xf3	-13
175	0xb3	-77
176	0x71	113
177	0x16	22
178	0x1d	29
179	0x0a	10
180	0xc0	-64
181	0x11	17
182	0xee	-18
183	0xf1	-15
184	0x0a	10
185	0x63	99
186	0xbf	-65
187	0x6e	110
188	0x1f	31
189	0x4b	75
190	0xc6	-58
191	0x43	67
192	0x81	-127
193	0x18	24
194	0x81	-127
195	0xc2	-62
196	0xb4	-76
197	0x7f	127
198	0x5b	91
199	0x1e	30
200	0xb6	-74
201	0x3c	60
202	0x7f	127
203	0xcf	-49
204	0xab	-85
205	0xba	-70
206	0xea	-22
207	0x3d	61
208	0x21	33
209	0xad	-83
210	0xb4	-76
211	0x18	24
212	0x8b	-117
213	0xc2	-62
214	0x4a	74
215	0x7f	127
216	0xb4	-76
217	0x85	-123
218	0x7f	127
219	0x2f	47
220	0xd4	-44
221	0x18	24
222	0x81	-127
223	0x42	66
224	0xa6	-90
225	0x9e	-98
226	0x16	22
227	0xb9	-71
228	0x52	82
229	0xea	-22
230	0x90	-112
231	0x7d	125
232	0xa7	-89
233	0x3d	61
234	0x59	89
235	0xd5	-43
236	0xcf	-49
237	0xe4	-28
238	0x81	-127
239	0x41	65
240	0xd3	-45
241	0xa3	-93
242	0x20	32
243	0x82	-126
244	0x7e	126
245	0xf4	-12
246	0xdc	-36
247	0x7f	127
248	0x83	-125
249	0xb7	-73
250	0xb0	-80
251	0x7f	127
252	0x7f	127
253	0xe7	-25
254	0x88	-120
255	0x1b	27

model_1/conv2d_8/Conv2D i1 [192, 1, 1, 32]
0	0xf1	-15
1	0x7f	127
2	0xfd	-3
3	0x46	70
4	0xed	-19
5	0x23	35
6	0xde	-34
7	0x1c	28
8	0x01	1
9	0x0d	13
10	0xe8	-24
11	0xf6	-10
12	0xf9	-7
13	0xd7	-41
14	0x06	6
15	0xfa	-6
16	0x1e	30
17	0xe1	-31
18	0x31	49
19	0xfb	-5
20	0xf1	-15
21	0x15	21
22	0x01	1
23	0x0d	13
24	0x1e	30
25	0x1b	27
26	0x00	0
27	0xf9	-7
28	0xe2	-30
29	0x27	39
30	0xe4	-28
31	0xf8	-8
32	0x31	49
33	0x93	-109
34	0xcc	-52
35	0xdf	-33
36	0xc2	-62
37	0xe0	-32
38	0x2a	42
39	0x88	-120
40	0xa8	-88
41	0x20	32
42	0x00	0
43	0x3e	62
44	0x95	-107
45	0x4a	74
46	0xfb	-5
47	0xbe	-66
48	0xaf	-81
49	0x7b	123
50	0xb8	-72
51	0xda	-38
52	0x0b	11
53	0xbe	-66
54	0x06	6
55	0xb9	-71
56	0xa5	-91
57	0x17	23
58	0x04	4
59	0x0d	13
60	0x29	41
61	0x18	24
62	0xd3	-45
63	0x7f	127
64	0x3e	62
65	0xd0	-48
66	0xe7	-25
67	0xe2	-30
68	0x1b	27
69	0x81	-127
70	0x41	65
71	0x9b	-101
72	0x3f	63
73	0xb6	-74
74	0xed	-19
75	0x33	51
76	0xdc	-36
77	0x21	33
78	0x28	40
79	0x27	39
80	0x8e	-114
81	0x11	17
82	0x2b	43
83	0xfb	-5
84	0xb8	-72
85	0x1a	26
86	0xdd	-35
87	0xd0	-48
88	0xe2	-30
89	0xfe	-2
90	0x08	8
91	0xf5	-11
92	0x09	9
93	0xaf	-81
94	0x21	33
95	0xe7	-25
96	0x22	34
97	0xc8	-56
98	0xf1	-15
99	0xee	-18
100	0xf0	-16
101	0x85	-123
102	0xcd	-51
103	0xe2	-30
104	0xe0	-32
105	0x43	67
106	0x53	83
107	0xb8	-72
108	0x97	-105
109	0x50	80
110	0x2a	42
111	0xe7	-25
112	0x2d	45
113	0x30	48
114	0x04	4
115	0x31	49
116	0xfd	-3
117	0x45	69
118	0x81	-127
119	0xee	-18
120	0x00	0
121	0xed	-19
122	0x09	9
123	0x2e	46
124	0x58	88
125	0xd8	-40
126	0x0b	11
127	0x32	50
128	0x14	20
129	0x4b	75
130	0x7f	127
131	0xf6	-10
132	0xfc	-4
133	0x0e	14
134	0x8f	-113
135	0xfd	-3
136	0xfe	-2
137	0x08	8
138	0x17	23
139	0xed	-19
140	0xdb	-37
141	0x0f	15
142	0xe9	-23
143	0x15	21
144	0x77	119
145	0xc8	-56
146	0x41	65
147	0xcb	-53
148	0xf0	-16
149	0x03	3
150	0x13	19
151	0x15	21
152	0xe2	-30
153	0xdc	-36
154	0xf3	-13
155	0x5f	95
156	0x21	33
157	0xda	-38
158	0x00	0
159	0x29	41
160	0xf9	-7
161	0x33	51
162	0x09	9
163	0x33	51
164	0x0e	14
165	0xea	-22
166	0x46	70
167	0xf5	-11
168	0x7f	127
169	0xea	-22
170	0xda	-38
171	0x0f	15
172	0xe2	-30
173	0x04	4
174	0xf8	-8
175	0xdf	-33
176	0x0c	12
177	0x38	56
178	0xbf	-65
179	0x19	25
180	0x15	21
181	0xe8	-24
182	0x40	64
183	0x38	56
184	0x22	34
185	0xc9	-55
186	0x5d	93
187	0x09	9
188	0x34	52
189	0x13	19
190	0xe3	-29
191	0xea	-22
192	0xb5	-75
193	0x36	54
194	0x50	80
195	0x0a	10
196	0x35	53
197	0x56	86
198	0x0b	11
199	0xf3	-13
200	0x2d	45
201	0x0c	12
202	0x81	-127
203	0xf3	-13
204	0x12	18
205	0x3e	62
206	0x32	50
207	0x15	21
208	0xf0	-16
209	0xbd	-67
210	0xee	-18
211	0x34	52
212	0xc3	-61
213	0xe2	-30
214	0x54	84
215	0x46	70
216	0xd6	-42
217	0x82	-126
218	0x79	121
219	0xb1	-79
220	0x89	-119
221	0xa3	-93
222	0x60	96
223	0xa6	-90
224	0xf6	-10
225	0x01	1
226	0xe2	-30
227	0xf6	-10
228	0x7f	127
229	0x54	84
230	0x2f	47
231	0x31	49
232	0xb6	-74
233	0xec	-20
234	0xf7	-9
235	0xf1	-15
236	0xdc	-36
237	0xe4	-28
238	0xf0	-16
239	0xf1	-15
240	0xcd	-51
241	0x1a	26
242	0xf3	-13
243	0xfa	-6
244	0x08	8
245	0x2c	44
246	0x40	64
247	0xf2	-14
248	0x36	54
249	0xf0	-16
250	0xde	-34
251	0xa9	-87
252	0x0a	10
253	0x20	32
254	0x2a	42
255	0x07	7

model_1/conv_pw_247/Conv2D i1 [32, 1, 1, 32]
0	0xdc	-36
1	0x0a	10
2	0x13	19
3	0x9d	-99
4	0x5f	95
5	0x7f	127
6	0x72	114
7	0x5e	94
8	0xc8	-56
9	0xf9	-7
10	0x54	84
11	0xc9	-55
12	0xe8	-24
13	0x6e	110
14	0xc8	-56
15	0xf7	-9
16	0x97	-105
17	0xe7	-25
18	0xd6	-42
19	0xd5	-43
20	0xe6	-26
21	0x92	-110
22	0x20	32
23	0x9d	-99
24	0xbc	-68
25	0x0e	14
26	0x3f	63
27	0x33	51
28	0x11	17
29	0xe4	-28
30	0x8f	-113
31	0xf2	-14
32	0x69	105
33	0x16	22
34	0xea	-22
35	0x32	50
36	0xfb	-5
37	0xc6	-58
38	0xca	-54
39	0x38	56
40	0x04	4
41	0xe6	-26
42	0xfa	-6
43	0xc6	-58
44	0x8e	-114
45	0xc3	-61
46	0x54	84
47	0xfe	-2
48	0xa5	-91
49	0xc2	-62
50	0xa3	-93
51	0x13	19
52	0xc7	-57
53	0x39	57
54	0xcb	-53
55	0x21	33
56	0xdc	-36
57	0x7f	127
58	0xbc	-68
59	0xf9	-7
60	0xd6	-42
61	0x0d	13
62	0xd2	-46
63	0xf3	-13
64	0xcf	-49
65	0xe3	-29
66	0xaf	-81
67	0x32	50
68	0xe4	-28
69	0x06	6
70	0x1d	29
71	0x1e	30
72	0x2a	42
73	0xea	-22
74	0xfa	-6
75	0x0b	11
76	0xd3	-45
77	0x02	2
78	0xa0	-96
79	0x7f	127
80	0x25	37
81	0xdc	-36
82	0xc8	-56
83	0xea	-22
84	0x00	0
85	0x01	1
86	0xd5	-43
87	0x36	54
88	0x20	32
89	0x75	117
90	0x2f	47
91	0x39	57
92	0x1c	28
93	0xfd	-3
94	0xfc	-4
95	0xfa	-6
96	0xec	-20
97	0xe3	-29
98	0xf8	-8
99	0xff	-1
100	0x04	4
101	0x2c	44
102	0x1c	28
103	0x33	51
104	0xd8	-40
105	0xd7	-41
106	0x1a	26
107	0x3f	63
108	0x00	0
109	0x7f	127
110	0xf8	-8
111	0x28	40
112	0xfa	-6
113	0x32	50
114	0x1a	26
115	0xcc	-52
116	0xbb	-69
117	0x67	103
118	0xe3	-29
119	0xb7	-73
120	0x01	1
121	0xba	-70
122	0x26	38
123	0xd0	-48
124	0xee	-18
125	0xaf	-81
126	0x4e	78
127	0x1f	31
128	0xef	-17
129	0x2a	42
130	0x0e	14
131	0x57	87
132	0x4d	77
133	0xe1	-31
134	0x09	9
135	0xe9	-23
136	0x2e	46
137	0x6d	109
138	0xc7	-57
139	0xff	-1
140	0x2e	46
141	0xe6	-26
142	0xfc	-4
143	0xe5	-27
144	0x9c	-100
145	0x7f	127
146	0x22	34
147	0x5f	95
148	0xac	-84
149	0x69	105
150	0x0b	11
151	0xb4	-76
152	0xb4	-76
153	0xd4	-44
154	0xe6	-26
155	0xfe	-2
156	0x16	22
157	0xd0	-48
158	0x23	35
159	0x0b	11
160	0x1e	30
161	0x7f	127
162	0x30	48
163	0xf7	-9
164	0x6e	110
165	0xd7	-41
166	0xde	-34
167	0xf0	-16
168	0x9b	-101
169	0x08	8
170	0x22	34
171	0xcc	-52
172	0xef	-17
173	0xc7	-57
174	0x59	89
175	0xe5	-27
176	0xba	-70
177	0x4f	79
178	0x58	88
179	0x32	50
180	0xd5	-43
181	0xd5	-43
182	0xec	-20
183	0xc7	-57
184	0xac	-84
185	0xa3	-93
186	0xc8	-56
187	0xef	-17
188	0xcd	-51
189	0x24	36
190	0xc6	-58
191	0xfb	-5
192	0xe4	-28
193	0x0f	15
194	0x0f	15
195	0x0b	11
196	0x09	9
197	0xfb	-5
198	0xd9	-39
199	0x2b	43
200	0x0a	10
201	0x16	22
202	0x64	100
203	0x2a	42
204	0x0d	13
205	0x17	23
206	0x4c	76
207	0x35	53
208	0xee	-18
209	0x7f	127
210	0xc5	-59
211	0x3b	59
212	0x11	17
213	0x11	17
214	0xca	-54
215	0x10	16
216	0xeb	-21
217	0x9f	-97
218	0xd8	-40
219	0x09	9
220	0x03	3
221	0xdb	-37
222	0x3b	59
223	0x15	21
224	0x25	37
225	0x22	34
226	0x09	9
227	0x0a	10
228	0xdf	-33
229	0xfc	-4
230	0xe1	-31
231	0xe6	-26
232	0x12	18
233	0xf1	-15
234	0xcd	-51
235	0xdc	-36
236	0xa6	-90
237	0x01	1
238	0xda	-38
239	0x1e	30
240	0x06	6
241	0x35	53
242	0x81	-127
243	0xf6	-10
244	0xd3	-45
245	0xf5	-11
246	0x02	2
247	0x04	4
248	0xfa	-6
249	0x17	23
250	0x17	23
251	0x14	20
252	0xe2	-30
253	0x28	40
254	0xf4	-12
255	0x1a	26

model_1/conv_dw_247_bn/FusedBatchNormV3;model_1/conv_dw_247/depthwise;model_1/conv_pw_247/Conv2D i1 [1, 3, 3, 32]
0	0xb9	-71
1	0xff	-1
2	0x14	20
3	0x0d	13
4	0x46	70
5	0x4b	75
6	0xd0	-48
7	0x49	73
8	0x01	1
9	0x39	57
10	0xf5	-11
11	0xf8	-8
12	0x0c	12
13	0xfc	-4
14	0xed	-19
15	0xc6	-58
16	0x7f	127
17	0x41	65
18	0x36	54
19	0x01	1
20	0x7f	127
21	0x02	2
22	0xd6	-42
23	0x46	70
24	0xde	-34
25	0x81	-127
26	0x48	72
27	0xea	-22
28	0x2e	46
29	0xc7	-57
30	0xc1	-63
31	0x89	-119
32	0x8f	-113
33	0xea	-22
34	0x7f	127
35	0x11	17
36	0x65	101
37	0x33	51
38	0x7f	127
39	0xe6	-26
40	0x3b	59
41	0xfc	-4
42	0x20	32
43	0x0d	13
44	0xa6	-90
45	0x4f	79
46	0x2e	46
47	0x81	-127
48	0x4c	76
49	0x5c	92
50	0x71	113
51	0xbe	-66
52	0x14	20
53	0xe4	-28
54	0xda	-38
55	0x3b	59
56	0x4a	74
57	0xd8	-40
58	0x7f	127
59	0xaf	-81
60	0x33	51
61	0xd5	-43
62	0x0c	12
63	0xbe	-66
64	0x81	-127
65	0xfc	-4
66	0xcf	-49
67	0x00	0
68	0x23	35
69	0xb7	-73
70	0xf7	-9
71	0xa1	-95
72	0xec	-20
73	0xf2	-14
74	0x7f	127
75	0x18	24
76	0xf6	-10
77	0x00	0
78	0xe1	-31
79	0x0f	15
80	0x59	89
81	0x28	40
82	0x49	73
83	0xeb	-21
84	0x12	18
85	0x10	16
86	0x7f	127
87	0x02	2
88	0x30	48
89	0x36	54
90	0x3a	58
91	0xb5	-75
92	0xc9	-55
93	0x9b	-101
94	0x7d	125
95	0xe7	-25
96	0x5d	93
97	0x16	22
98	0xe2	-30
99	0x00	0
100	0x68	104
101	0x40	64
102	0x20	32
103	0x2b	43
104	0x7f	127
105	0x7f	127
106	0xeb	-21
107	0x6f	111
108	0xcb	-53
109	0x3f	63
110	0x81	-127
111	0xaf	-81
112	0x52	82
113	0x7d	125
114	0xbe	-66
115	0x81	-127
116	0xbe	-66
117	0x05	5
118	0x65	101
119	0x7f	127
120	0xcf	-49
121	0x0f	15
122	0xa0	-96
123	0xe7	-25
124	0x88	-120
125	0x81	-127
126	0xef	-17
127	0xb1	-79
128	0x32	50
129	0x81	-127
130	0xeb	-21
131	0xc9	-55
132	0x89	-119
133	0x66	102
134	0x48	72
135	0x5a	90
136	0x2f	47
137	0xe4	-28
138	0x06	6
139	0x21	33
140	0x0e	14
141	0x26	38
142	0x04	4
143	0x1e	30
144	0xde	-34
145	0x7a	122
146	0x81	-127
147	0x26	38
148	0xc7	-57
149	0xb5	-75
150	0xba	-70
151	0x12	18
152	0x7f	127
153	0x34	52
154	0xe1	-31
155	0x9a	-102
156	0x14	20
157	0xf1	-15
158	0x08	8
159	0x3f	63
160	0xe3	-29
161	0xf1	-15
162	0xe5	-27
163	0xf4	-12
164	0x2b	43
165	0x81	-127
166	0xb0	-80
167	0x81	-127
168	0x25	37
169	0xf6	-10
170	0x3a	58
171	0x38	56
172	0x81	-127
173	0xeb	-21
174	0x31	49
175	0xec	-20
176	0x45	69
177	0x7f	127
178	0xec	-20
179	0xdb	-37
180	0xeb	-21
181	0x7f	127
182	0xb7	-73
183	0x54	84
184	0x06	6
185	0xf1	-15
186	0x50	80
187	0x22	34
188	0xc9	-55
189	0xba	-70
190	0x7f	127
191	0x28	40
192	0x21	33
193	0x1c	28
194	0xdd	-35
195	0xd7	-41
196	0x69	105
197	0xf5	-11
198	0xea	-22
199	0x4b	75
200	0xe1	-31
201	0x04	4
202	0xf2	-14
203	0x53	83
204	0xea	-22
205	0xf4	-12
206	0x19	25
207	0xc0	-64
208	0x79	121
209	0x26	38
210	0x31	49
211	0xa2	-94
212	0x78	120
213	0x00	0
214	0xd8	-40
215	0x2f	47
216	0xca	-54
217	0x38	56
218	0xe6	-26
219	0x71	113
220	0x1d	29
221	0xb6	-74
222	0xaa	-86
223	0x81	-127
224	0xea	-22
225	0x03	3
226	0xef	-17
227	0x7f	127
228	0x7f	127
229	0x0c	12
230	0xcf	-49
231	0xfd	-3
232	0xa9	-87
233	0xfb	-5
234	0x31	49
235	0x10	16
236	0x09	9
237	0x81	-127
238	0xca	-54
239	0xbf	-65
240	0x26	38
241	0x6c	108
242	0xed	-19
243	0x3c	60
244	0xff	-1
245	0xe2	-30
246	0xaa	-86
247	0x5c	92
248	0xf1	-15
249	0x15	21
250	0xe4	-28
251	0x49	73
252	0x5c	92
253	0xd8	-40
254	0x26	38
255	0x21	33

model_1/conv2d_6/Conv2D i1 [32, 1, 1, 64]
0	0x30	48
1	0xe3	-29
2	0x1f	31
3	0x1b	27
4	0xcf	-49
5	0x5e	94
6	0x17	23
7	0x04	4
8	0x5e	94
9	0x2f	47
10	0xf3	-13
11	0x1b	27
12	0xd7	-41
13	0x1f	31
14	0x81	-127
15	0x12	18
16	0xbc	-68
17	0xf8	-8
18	0xfd	-3
19	0x6a	106
20	0x19	25
21	0x0f	15
22	0x3e	62
23	0x33	51
24	0x06	6
25	0xfe	-2
26	0xf2	-14
27	0x10	16
28	0x34	52
29	0x0f	15
30	0x31	49
31	0xf9	-7
32	0x53	83
33	0x88	-120
34	0x57	87
35	0xf6	-10
36	0x52	82
37	0xd1	-47
38	0xc5	-59
39	0x06	6
40	0x22	34
41	0x29	41
42	0xce	-50
43	0xaa	-86
44	0xaf	-81
45	0x12	18
46	0xb1	-79
47	0xee	-18
48	0xfa	-6
49	0xe5	-27
50	0x2f	47
51	0x29	41
52	0x1a	26
53	0x0b	11
54	0xc8	-56
55	0x1a	26
56	0x11	17
57	0x15	21
58	0xcc	-52
59	0xef	-17
60	0x1e	30
61	0x76	118
62	0x13	19
63	0x14	20
64	0xcf	-49
65	0xd0	-48
66	0xe9	-23
67	0x33	51
68	0xf0	-16
69	0xf8	-8
70	0x1e	30
71	0xec	-20
72	0xcd	-51
73	0x22	34
74	0xd8	-40
75	0x02	2
76	0xf2	-14
77	0x13	19
78	0xee	-18
79	0x3e	62
80	0x4c	76
81	0x1e	30
82	0x62	98
83	0xad	-83
84	0xe2	-30
85	0x03	3
86	0xb8	-72
87	0x0c	12
88	0xfb	-5
89	0xf7	-9
90	0x58	88
91	0x08	8
92	0xd6	-42
93	0xe7	-25
94	0xf7	-9
95	0x30	48
96	0xf0	-16
97	0x38	56
98	0xef	-17
99	0x29	41
100	0xf3	-13
101	0x81	-127
102	0x53	83
103	0xf1	-15
104	0xb2	-78
105	0x18	24
106	0x4d	77
107	0x60	96
108	0x7e	126
109	0x3c	60
110	0x37	55
111	0xdd	-35
112	0x70	112
113	0x12	18
114	0xcf	-49
115	0x28	40
116	0x04	4
117	0x07	7
118	0xfd	-3
119	0xe1	-31
120	0xe9	-23
121	0xcb	-53
122	0xd1	-47
123	0x35	53
124	0x14	20
125	0x17	23
126	0x56	86
127	0x20	32
128	0xdb	-37
129	0xea	-22
130	0x13	19
131	0xa7	-89
132	0xc7	-57
133	0xd7	-41
134	0x52	82
135	0xf9	-7
136	0x19	25
137	0xd3	-45
138	0xfd	-3
139	0x7f	127
140	0x0a	10
141	0xd9	-39
142	0xca	-54
143	0xd8	-40
144	0xfe	-2
145	0xda	-38
146	0xe1	-31
147	0x00	0
148	0x11	17
149	0x08	8
150	0x02	2
151	0xfa	-6
152	0xf4	-12
153	0x5b	91
154	0x01	1
155	0xf9	-7
156	0xde	-34
157	0x21	33
158	0x30	48
159	0x1e	30
160	0x3e	62
161	0x66	102
162	0x39	57
163	0x0c	12
164	0x0a	10
165	0xea	-22
166	0x28	40
167	0xe1	-31
168	0x26	38
169	0x10	16
170	0x42	66
171	0x17	23
172	0xee	-18
173	0xc4	-60
174	0xd1	-47
175	0xc5	-59
176	0x02	2
177	0x20	32
178	0x26	38
179	0x30	48
180	0xc8	-56
181	0xc0	-64
182	0xe9	-23
183	0xf5	-11
184	0x09	9
185	0xda	-38
186	0x24	36
187	0xde	-34
188	0x08	8
189	0xfc	-4
190	0x35	53
191	0x29	41
192	0xf6	-10
193	0xfa	-6
194	0xc4	-60
195	0x24	36
196	0xf3	-13
197	0x05	5
198	0x03	3
199	0x11	17
200	0x21	33
201	0x0c	12
202	0x16	22
203	0xcb	-53
204	0xd6	-42
205	0xd5	-43
206	0x16	22
207	0xb6	-74
208	0xf5	-11
209	0x5a	90
210	0x3f	63
211	0xa0	-96
212	0x8c	-116
213	0xf6	-10
214	0xec	-20
215	0xb2	-78
216	0x09	9
217	0xc9	-55
218	0xe2	-30
219	0x5a	90
220	0xe6	-26
221	0xfb	-5
222	0x07	7
223	0xf1	-15
224	0xf8	-8
225	0x36	54
226	0xe2	-30
227	0xc4	-60
228	0x11	17
229	0xf7	-9
230	0xbf	-65
231	0xee	-18
232	0xdc	-36
233	0xd9	-39
234	0xfa	-6
235	0x04	4
236	0x3d	61
237	0x02	2
238	0x6f	111
239	0x95	-107
240	0x0c	12
241	0xf6	-10
242	0xb4	-76
243	0xe3	-29
244	0xc7	-57
245	0xa2	-94
246	0x06	6
247	0xd0	-48
248	0x37	55
249	0xfa	-6
250	0x23	35
251	0x02	2
252	0x7f	127
253	0x73	115
254	0xfa	-6
255	0x1e	30

model_1/conv2d_4/Conv2D i1 [192, 1, 1, 64]
0	0x04	4
1	0xd0	-48
2	0xcb	-53
3	0x95	-107
4	0xfa	-6
5	0xf3	-13
6	0x43	67
7	0x1a	26
8	0x87	-121
9	0xef	-17
10	0x81	-127
11	0x14	20
12	0xbd	-67
13	0x04	4
14	0xd1	-47
15	0xf6	-10
16	0x51	81
17	0xb9	-71
18	0x9c	-100
19	0xd5	-43
20	0x2a	42
21	0xa8	-88
22	0x29	41
23	0x32	50
24	0xcd	-51
25	0x14	20
26	0x9a	-102
27	0x9c	-100
28	0xdc	-36
29	0xdc	-36
30	0xef	-17
31	0x9f	-97
32	0x0a	10
33	0xe7	-25
34	0x04	4
35	0x53	83
36	0x68	104
37	0x00	0
38	0x0b	11
39	0x3b	59
40	0xa6	-90
41	0xf6	-10
42	0xac	-84
43	0xb2	-78
44	0x98	-104
45	0xc4	-60
46	0xac	-84
47	0xdd	-35
48	0xd9	-39
49	0x00	0
50	0xcc	-52
51	0x2f	47
52	0xe4	-28
53	0xf7	-9
54	0xfe	-2
55	0xdd	-35
56	0xe8	-24
57	0xa2	-94
58	0x56	86
59	0xdf	-33
60	0xf7	-9
61	0xcc	-52
62	0x05	5
63	0x1f	31
64	0xda	-38
65	0x2c	44
66	0x02	2
67	0x7f	127
68	0x07	7
69	0xdc	-36
70	0xcc	-52
71	0xcc	-52
72	0x1c	28
73	0xc8	-56
74	0xc3	-61
75	0xfc	-4
76	0x05	5
77	0x2a	42
78	0x93	-109
79	0xb0	-80
80	0x0a	10
81	0x14	20
82	0xd5	-43
83	0xdd	-35
84	0xde	-34
85	0x38	56
86	0xfb	-5
87	0xfe	-2
88	0x22	34
89	0xaf	-81
90	0xef	-17
91	0x12	18
92	0xde	-34
93	0x09	9
94	0xf6	-10
95	0xf6	-10
96	0x36	54
97	0x1c	28
98	0xb1	-79
99	0xed	-19
100	0xd0	-48
101	0xbc	-68
102	0xe9	-23
103	0xc5	-59
104	0x15	21
105	0xf7	-9
106	0xed	-19
107	0x19	25
108	0x35	53
109	0x06	6
110	0x00	0
111	0xa9	-87
112	0x2a	42
113	0x2e	46
114	0xf2	-14
115	0x14	20
116	0x0b	11
117	0xeb	-21
118	0x08	8
119	0x0b	11
120	0x15	21
121	0x20	32
122	0x08	8
123	0xd6	-42
124	0x2f	47
125	0x3b	59
126	0xec	-20
127	0x21	33
128	0x3d	61
129	0x1a	26
130	0xc3	-61
131	0xf1	-15
132	0x3f	63
133	0x02	2
134	0x2e	46
135	0xf1	-15
136	0xfb	-5
137	0x15	21
138	0xdc	-36
139	0x0d	13
140	0x2f	47
141	0xfe	-2
142	0xf6	-10
143	0x1a	26
144	0x20	32
145	0xfe	-2
146	0xfd	-3
147	0x04	4
148	0xb0	-80
149	0xdf	-33
150	0xf1	-15
151	0xff	-1
152	0x02	2
153	0x29	41
154	0x16	22
155	0x53	83
156	0x19	25
157	0xd5	-43
158	0xf1	-15
159	0x7f	127
160	0x09	9
161	0x1b	27
162	0xe2	-30
163	0x3e	62
164	0xeb	-21
165	0xc1	-63
166	0xd2	-46
167	0x13	19
168	0x0a	10
169	0xf1	-15
170	0x24	36
171	0x39	57
172	0xe3	-29
173	0x23	35
174	0x2b	43
175	0x16	22
176	0x09	9
177	0x04	4
178	0xee	-18
179	0xfd	-3
180	0x0a	10
181	0xd8	-40
182	0x19	25
183	0x41	65
184	0xd4	-44
185	0xea	-22
186	0x44	68
187	0xeb	-21
188	0x05	5
189	0xec	-20
190	0x2a	42
191	0xca	-54
192	0x10	16
193	0x68	104
194	0x9e	-98
195	0xfe	-2
196	0x61	97
197	0x0c	12
198	0xbd	-67
199	0xcc	-52
200	0x0d	13
201	0x5d	93
202	0xe9	-23
203	0xe2	-30
204	0x71	113
205	0xb6	-74
206	0x0d	13
207	0xee	-18
208	0xfe	-2
209	0x99	-103
210	0xf9	-7
211	0x18	24
212	0xec	-20
213	0x28	40
214	0xe1	-31
215	0xdd	-35
216	0x7f	127
217	0xd2	-46
218	0xd3	-45
219	0x66	102
220	0x20	32
221	0xd7	-41
222	0xf8	-8
223	0x35	53
224	0xcd	-51
225	0x20	32
226	0xa4	-92
227	0x01	1
228	0x05	5
229	0xb3	-77
230	0x0f	15
231	0x4b	75
232	0x0b	11
233	0x0f	15
234	0xd8	-40
235	0x08	8
236	0xb6	-74
237	0xd8	-40
238	0x0b	11
239	0xd8	-40
240	0xd8	-40
241	0xf3	-13
242	0xcd	-51
243	0xe9	-23
244	0xe7	-25
245	0xae	-82
246	0x11	17
247	0xee	-18
248	0xee	-18
249	0xab	-85
250	0x04	4
251	0x22	34
252	0xeb	-21
253	0x0b	11
254	0xe3	-29
255	0x47	71

model_1/conv_pw_248/Conv2D i1 [64, 1, 1, 64]
0	0xc7	-57
1	0x6d	109
2	0x22	34
3	0x33	51
4	0xc1	-63
5	0xe4	-28
6	0x21	33
7	0x1c	28
8	0x01	1
9	0xcc	-52
10	0x0b	11
11	0xe0	-32
12	0x16	22
13	0x50	80
14	0x11	17
15	0x09	9
16	0x07	7
17	0x3d	61
18	0x50	80
19	0x10	16
20	0x7f	127
21	0x32	50
22	0xe4	-28
23	0xfc	-4
24	0xf9	-7
25	0xfb	-5
26	0x00	0
27	0x05	5
28	0x0d	13
29	0xfc	-4
30	0xf9	-7
31	0x9e	-98
32	0x17	23
33	0xe3	-29
34	0xe8	-24
35	0x35	53
36	0xe4	-28
37	0x15	21
38	0x39	57
39	0x37	55
40	0x25	37
41	0x06	6
42	0xec	-20
43	0xfe	-2
44	0x1c	28
45	0xe5	-27
46	0xda	-38
47	0x3f	63
48	0xd5	-43
49	0xa6	-90
50	0xe9	-23
51	0x34	52
52	0x55	85
53	0x70	112
54	0x17	23
55	0x31	49
56	0xfc	-4
57	0x74	116
58	0x1e	30
59	0xf7	-9
60	0x18	24
61	0x0c	12
62	0xe3	-29
63	0xe4	-28
64	0xd8	-40
65	0x1d	29
66	0x2a	42
67	0x2a	42
68	0x25	37
69	0x08	8
70	0x57	87
71	0x48	72
72	0x2c	44
73	0x48	72
74	0x43	67
75	0x00	0
76	0x01	1
77	0xe3	-29
78	0x09	9
79	0x04	4
80	0x07	7
81	0x28	40
82	0xff	-1
83	0xe5	-27
84	0x15	21
85	0xf4	-12
86	0xeb	-21
87	0x31	49
88	0x36	54
89	0x25	37
90	0x58	88
91	0xd7	-41
92	0xf2	-14
93	0x27	39
94	0xef	-17
95	0x1d	29
96	0xf9	-7
97	0xd9	-39
98	0xd4	-44
99	0xff	-1
100	0x00	0
101	0xc5	-59
102	0xbc	-68
103	0x59	89
104	0x07	7
105	0x62	98
106	0xf9	-7
107	0xe3	-29
108	0x2d	45
109	0x19	25
110	0x01	1
111	0xe2	-30
112	0x0c	12
113	0xb8	-72
114	0x27	39
115	0xfa	-6
116	0x81	-127
117	0x48	72
118	0xbc	-68
119	0xbd	-67
120	0xdb	-37
121	0x29	41
122	0xc2	-62
123	0x15	21
124	0xf8	-8
125	0xdf	-33
126	0x01	1
127	0x42	66
128	0x01	1
129	0x2f	47
130	0xe9	-23
131	0x0a	10
132	0xde	-34
133	0x1a	26
134	0xce	-50
135	0x2b	43
136	0xd4	-44
137	0xb1	-79
138	0x02	2
139	0xf2	-14
140	0x49	73
141	0x6a	106
142	0x56	86
143	0xe5	-27
144	0x02	2
145	0xf0	-16
146	0x03	3
147	0x1f	31
148	0x15	21
149	0xac	-84
150	0x81	-127
151	0x4a	74
152	0x53	83
153	0x0e	14
154	0xf4	-12
155	0xb9	-71
156	0x19	25
157	0x10	16
158	0xe2	-30
159	0xfd	-3
160	0x76	118
161	0x5d	93
162	0xfb	-5
163	0x03	3
164	0xef	-17
165	0x35	53
166	0xd5	-43
167	0xd5	-43
168	0x07	7
169	0x34	52
170	0xbe	-66
171	0x26	38
172	0x68	104
173	0x07	7
174	0x30	48
175	0x0c	12
176	0x2a	42
177	0x4e	78
178	0x2f	47
179	0x18	24
180	0xd5	-43
181	0x8b	-117
182	0x8d	-115
183	0x40	64
184	0x37	55
185	0xd6	-42
186	0x5d	93
187	0xe8	-24
188	0x1b	27
189	0x53	83
190	0x24	36
191	0x27	39
192	0xfc	-4
193	0x14	20
194	0xc0	-64
195	0xd8	-40
196	0xc0	-64
197	0xe0	-32
198	0x07	7
199	0x35	53
200	0xdb	-37
201	0xd1	-47
202	0x00	0
203	0x01	1
204	0xdb	-37
205	0x16	22
206	0x7f	127
207	0xee	-18
208	0xbd	-67
209	0x0f	15
210	0xf7	-9
211	0x31	49
212	0xcf	-49
213	0xcb	-53
214	0xef	-17
215	0x33	51
216	0xe2	-30
217	0xe4	-28
218	0xe0	-32
219	0xed	-19
220	0x0a	10
221	0x21	33
222	0x22	34
223	0x04	4
224	0xed	-19
225	0xc8	-56
226	0x53	83
227	0xd8	-40
228	0x10	16
229	0x19	25
230	0xcd	-51
231	0xf6	-10
232	0x4d	77
233	0x04	4
234	0xf7	-9
235	0x26	38
236	0x31	49
237	0xf5	-11
238	0x1a	26
239	0xff	-1
240	0xe5	-27
241	0x2c	44
242	0x00	0
243	0xf1	-15
244	0xdd	-35
245	0x1a	26
246	0xfb	-5
247	0x0a	10
248	0x9b	-101
249	0xf4	-12
250	0xf7	-9
251	0xc6	-58
252	0xb6	-74
253	0xf8	-8
254	0x31	49
255	0xe8	-24

model_1/conv_dw_248_bn/FusedBatchNormV3;model_1/conv_dw_248/depthwise;model_1/conv_pw_248/Conv2D i1 [1, 3, 3, 64]
0	0x35	53
1	0xf2	-14
2	0xf0	-16
3	0x0b	11
4	0x02	2
5	0xfa	-6
6	0xe3	-29
7	0xe6	-26
8	0xf3	-13
9	0x10	16
10	0x7f	127
11	0x24	36
12	0x17	23
13	0xa3	-93
14	0x7f	127
15	0x26	38
16	0xf3	-13
17	0x09	9
18	0xd2	-46
19	0xe6	-26
20	0xa7	-89
21	0xfd	-3
22	0xef	-17
23	0xf5	-11
24	0x26	38
25	0x18	24
26	0xb8	-72
27	0xd5	-43
28	0x13	19
29	0xd7	-41
30	0x7f	127
31	0x10	16
32	0xf6	-10
33	0x08	8
34	0x06	6
35	0x8b	-117
36	0x2d	45
37	0xe9	-23
38	0x04	4
39	0xa9	-87
40	0xf5	-11
41	0xad	-83
42	0xd0	-48
43	0xcf	-49
44	0xf3	-13
45	0xd8	-40
46	0xd6	-42
47	0xd6	-42
48	0xf1	-15
49	0xc6	-58
50	0x06	6
51	0x49	73
52	0xf0	-16
53	0x31	49
54	0x34	52
55	0x0b	11
56	0xf0	-16
57	0x09	9
58	0x5e	94
59	0xca	-54
60	0x23	35
61	0x11	17
62	0xd2	-46
63	0x49	73
64	0x53	83
65	0xe7	-25
66	0xa8	-88
67	0xde	-34
68	0x0d	13
69	0xb7	-73
70	0x7a	122
71	0x04	4
72	0xb3	-77
73	0xa6	-90
74	0xdd	-35
75	0x1b	27
76	0x81	-127
77	0x81	-127
78	0xed	-19
79	0x14	20
80	0xed	-19
81	0xd4	-44
82	0x55	85
83	0x81	-127
84	0x75	117
85	0xd2	-46
86	0xf6	-10
87	0xe6	-26
88	0x7f	127
89	0x2a	42
90	0xa3	-93
91	0xd1	-47
92	0xfb	-5
93	0xe8	-24
94	0x6f	111
95	0x38	56
96	0xa7	-89
97	0x33	51
98	0xf5	-11
99	0x1a	26
100	0x7f	127
101	0x0e	14
102	0x54	84
103	0x9e	-98
104	0x81	-127
105	0x42	66
106	0x9a	-102
107	0x1c	28
108	0x7a	122
109	0xed	-19
110	0xc1	-63
111	0x7f	127
112	0x81	-127
113	0x81	-127
114	0xfe	-2
115	0x6f	111
116	0xf2	-14
117	0x58	88
118	0x31	49
119	0xfa	-6
120	0xf1	-15
121	0x7f	127
122	0x7f	127
123	0x81	-127
124	0x7f	127
125	0x23	35
126	0xa3	-93
127	0x40	64
128	0x6f	111
129	0xf9	-7
130	0xdb	-37
131	0xd2	-46
132	0x1d	29
133	0xdf	-33
134	0xfd	-3
135	0x7f	127
136	0xe6	-26
137	0xee	-18
138	0xfa	-6
139	0xf9	-7
140	0xf6	-10
141	0xda	-38
142	0xd6	-42
143	0xfe	-2
144	0xfe	-2
145	0xf6	-10
146	0x26	38
147	0xce	-50
148	0x81	-127
149	0xaa	-86
150	0xdb	-37
151	0xff	-1
152	0x0a	10
153	0x26	38
154	0x29	41
155	0xf7	-9
156	0xf8	-8
157	0xf7	-9
158	0x4c	76
159	0x11	17
160	0xd1	-47
161	0x41	65
162	0xfe	-2
163	0x81	-127
164	0x27	39
165	0x7f	127
166	0xf7	-9
167	0xe0	-32
168	0x02	2
169	0x17	23
170	0xf9	-7
171	0xfb	-5
172	0xe3	-29
173	0x0e	14
174	0xdb	-37
175	0x06	6
176	0xbc	-68
177	0x8c	-116
178	0x37	55
179	0x3f	63
180	0xc2	-62
181	0xdf	-33
182	0xd7	-41
183	0xf0	-16
184	0xe3	-29
185	0xa4	-92
186	0x23	35
187	0xe1	-31
188	0x10	16
189	0x30	48
190	0xd3	-45
191	0x08	8
192	0x5d	93
193	0xeb	-21
194	0x05	5
195	0xf1	-15
196	0x07	7
197	0x0a	10
198	0xde	-34
199	0x4d	77
200	0x9a	-102
201	0x7f	127
202	0x07	7
203	0x22	34
204	0x33	51
205	0xea	-22
206	0x1e	30
207	0x19	25
208	0x22	34
209	0x5a	90
210	0x0d	13
211	0xef	-17
212	0xd0	-48
213	0xc7	-57
214	0x62	98
215	0xed	-19
216	0xfd	-3
217	0xfa	-6
218	0x7f	127
219	0xf1	-15
220	0x08	8
221	0xef	-17
222	0xcf	-49
223	0xf5	-11
224	0x7f	127
225	0xdd	-35
226	0x47	71
227	0x95	-107
228	0xd8	-40
229	0x01	1
230	0x1a	26
231	0x9f	-97
232	0x86	-122
233	0x81	-127
234	0x9e	-98
235	0xb9	-71
236	0xc9	-55
237	0xaa	-86
238	0x13	19
239	0xc3	-61
240	0xc7	-57
241	0xbe	-66
242	0xe1	-31
243	0xc7	-57
244	0xe5	-27
245	0x7f	127
246	0x7f	127
247	0xf6	-10
248	0xec	-20
249	0xf2	-14
250	0x4e	78
251	0x0b	11
252	0xf7	-9
253	0x04	4
254	0x8e	-114
255	0x7f	127
